…
------------------------------------------------------------
Dataset: Dataset ImageFolder
    Number of datapoints: 4800
    Root location: emnist_jpeg/Train
    StandardTransform
Transform: Compose(
               Grayscale(num_output_channels=1)
               Resize(size=32, interpolation=bilinear, max_size=None, antialias=None)
               RandomRotation(degrees=[90.0, 90.0], interpolation=nearest, expand=False, fill=0)
               RandomVerticalFlip(p=1)
               ToTensor()
               Normalize(mean=(0.5,), std=(0.5,))
           )
------------------------------------------------------------
Generator(
  (main): Sequential(
    (0): ConvTranspose2d(100, 256, kernel_size=(4, 4), stride=(2, 2), bias=False)
    (1): BatchNorm2d(256, eps=1e-05, momentum=0.1, affine=True, track_running_stats=True)
    (2): ReLU(inplace=True)
    (3): ConvTranspose2d(256, 128, kernel_size=(4, 4), stride=(2, 2), padding=(1, 1), bias=False)
    (4): BatchNorm2d(128, eps=1e-05, momentum=0.1, affine=True, track_running_stats=True)
    (5): ReLU(inplace=True)
    (6): ConvTranspose2d(128, 64, kernel_size=(4, 4), stride=(2, 2), padding=(1, 1), bias=False)
    (7): BatchNorm2d(64, eps=1e-05, momentum=0.1, affine=True, track_running_stats=True)
    (8): ReLU(inplace=True)
    (9): ConvTranspose2d(64, 1, kernel_size=(4, 4), stride=(2, 2), padding=(1, 1), bias=False)
    (10): Tanh()
  )
)
Discriminator(
  (conv1): Sequential(
    (0): Conv2d(1, 64, kernel_size=(4, 4), stride=(2, 2), padding=(1, 1), bias=False)
    (1): BatchNorm2d(64, eps=1e-05, momentum=0.1, affine=True, track_running_stats=True)
    (2): ReLU(inplace=True)
  )
  (conv2): Sequential(
    (0): Conv2d(64, 128, kernel_size=(4, 4), stride=(2, 2), padding=(1, 1), bias=False)
    (1): BatchNorm2d(128, eps=1e-05, momentum=0.1, affine=True, track_running_stats=True)
    (2): ReLU(inplace=True)
  )
  (conv3): Sequential(
    (0): Conv2d(128, 256, kernel_size=(4, 4), stride=(2, 2), padding=(1, 1), bias=False)
    (1): BatchNorm2d(256, eps=1e-05, momentum=0.1, affine=True, track_running_stats=True)
    (2): ReLU(inplace=True)
  )
  (conv4): Sequential(
    (0): Conv2d(256, 1, kernel_size=(4, 4), stride=(2, 2), bias=False)
    (1): Sigmoid()
  )
)
Now Training...
-------------------------
[0/150][0/150]	Loss_D: 1.3458	Loss_G: 0.8788	D(x): 0.5667	D(G(z)): 0.5301 / 0.4217
[0/150][10/150]	Loss_D: 0.4786	Loss_G: 1.7925	D(x): 0.8438	D(G(z)): 0.2536 / 0.1714
[0/150][20/150]	Loss_D: 0.2447	Loss_G: 2.6374	D(x): 0.9004	D(G(z)): 0.1252 / 0.0740
[0/150][30/150]	Loss_D: 0.2356	Loss_G: 2.8863	D(x): 0.8974	D(G(z)): 0.1041 / 0.0587
…
